***************************************************************
WRN-28-10  input = (3, 84, 84)  num_classes = 10
***************************************************************
----------------------------------------------------------------
        Layer (type)               Output Shape         Param #
================================================================
            Conv2d-1           [-1, 16, 84, 84]             448
       BatchNorm2d-2           [-1, 16, 84, 84]              32
            Conv2d-3          [-1, 160, 84, 84]          23,200
           Dropout-4          [-1, 160, 84, 84]               0
       BatchNorm2d-5          [-1, 160, 84, 84]             320
            Conv2d-6          [-1, 160, 84, 84]         230,560
            Conv2d-7          [-1, 160, 84, 84]           2,720
        wide_basic-8          [-1, 160, 84, 84]               0
       BatchNorm2d-9          [-1, 160, 84, 84]             320
           Conv2d-10          [-1, 160, 84, 84]         230,560
          Dropout-11          [-1, 160, 84, 84]               0
      BatchNorm2d-12          [-1, 160, 84, 84]             320
           Conv2d-13          [-1, 160, 84, 84]         230,560
       wide_basic-14          [-1, 160, 84, 84]               0
      BatchNorm2d-15          [-1, 160, 84, 84]             320
           Conv2d-16          [-1, 160, 84, 84]         230,560
          Dropout-17          [-1, 160, 84, 84]               0
      BatchNorm2d-18          [-1, 160, 84, 84]             320
           Conv2d-19          [-1, 160, 84, 84]         230,560
       wide_basic-20          [-1, 160, 84, 84]               0
      BatchNorm2d-21          [-1, 160, 84, 84]             320
           Conv2d-22          [-1, 160, 84, 84]         230,560
          Dropout-23          [-1, 160, 84, 84]               0
      BatchNorm2d-24          [-1, 160, 84, 84]             320
           Conv2d-25          [-1, 160, 84, 84]         230,560
       wide_basic-26          [-1, 160, 84, 84]               0
      BatchNorm2d-27          [-1, 160, 84, 84]             320
           Conv2d-28          [-1, 320, 84, 84]         461,120
          Dropout-29          [-1, 320, 84, 84]               0
      BatchNorm2d-30          [-1, 320, 84, 84]             640
           Conv2d-31          [-1, 320, 42, 42]         921,920
           Conv2d-32          [-1, 320, 42, 42]          51,520
       wide_basic-33          [-1, 320, 42, 42]               0
      BatchNorm2d-34          [-1, 320, 42, 42]             640
           Conv2d-35          [-1, 320, 42, 42]         921,920
          Dropout-36          [-1, 320, 42, 42]               0
      BatchNorm2d-37          [-1, 320, 42, 42]             640
           Conv2d-38          [-1, 320, 42, 42]         921,920
       wide_basic-39          [-1, 320, 42, 42]               0
      BatchNorm2d-40          [-1, 320, 42, 42]             640
           Conv2d-41          [-1, 320, 42, 42]         921,920
          Dropout-42          [-1, 320, 42, 42]               0
      BatchNorm2d-43          [-1, 320, 42, 42]             640
           Conv2d-44          [-1, 320, 42, 42]         921,920
       wide_basic-45          [-1, 320, 42, 42]               0
      BatchNorm2d-46          [-1, 320, 42, 42]             640
           Conv2d-47          [-1, 320, 42, 42]         921,920
          Dropout-48          [-1, 320, 42, 42]               0
      BatchNorm2d-49          [-1, 320, 42, 42]             640
           Conv2d-50          [-1, 320, 42, 42]         921,920
       wide_basic-51          [-1, 320, 42, 42]               0
      BatchNorm2d-52          [-1, 320, 42, 42]             640
           Conv2d-53          [-1, 640, 42, 42]       1,843,840
          Dropout-54          [-1, 640, 42, 42]               0
      BatchNorm2d-55          [-1, 640, 42, 42]           1,280
           Conv2d-56          [-1, 640, 21, 21]       3,687,040
           Conv2d-57          [-1, 640, 21, 21]         205,440
       wide_basic-58          [-1, 640, 21, 21]               0
      BatchNorm2d-59          [-1, 640, 21, 21]           1,280
           Conv2d-60          [-1, 640, 21, 21]       3,687,040
          Dropout-61          [-1, 640, 21, 21]               0
      BatchNorm2d-62          [-1, 640, 21, 21]           1,280
           Conv2d-63          [-1, 640, 21, 21]       3,687,040
       wide_basic-64          [-1, 640, 21, 21]               0
      BatchNorm2d-65          [-1, 640, 21, 21]           1,280
           Conv2d-66          [-1, 640, 21, 21]       3,687,040
          Dropout-67          [-1, 640, 21, 21]               0
      BatchNorm2d-68          [-1, 640, 21, 21]           1,280
           Conv2d-69          [-1, 640, 21, 21]       3,687,040
       wide_basic-70          [-1, 640, 21, 21]               0
      BatchNorm2d-71          [-1, 640, 21, 21]           1,280
           Conv2d-72          [-1, 640, 21, 21]       3,687,040
          Dropout-73          [-1, 640, 21, 21]               0
      BatchNorm2d-74          [-1, 640, 21, 21]           1,280
           Conv2d-75          [-1, 640, 21, 21]       3,687,040
       wide_basic-76          [-1, 640, 21, 21]               0
      BatchNorm2d-77          [-1, 640, 21, 21]           1,280
AdaptiveAvgPool2d-78            [-1, 640, 1, 1]               0
           Linear-79                   [-1, 10]           6,410
================================================================
Total params: 36,489,290
Trainable params: 36,489,290
Non-trainable params: 0
----------------------------------------------------------------
Input size (MB): 0.08
Forward/backward pass size (MB): 436.70
Params size (MB): 139.20
Estimated Total Size (MB): 575.97
----------------------------------------------------------------


***************************************************************
conv4  input = (3, 84, 84)  num_classes = 10
***************************************************************
----------------------------------------------------------------
        Layer (type)               Output Shape         Param #
================================================================
            Conv2d-1           [-1, 64, 84, 84]           1,792
       BatchNorm2d-2           [-1, 64, 84, 84]             128
              ReLU-3           [-1, 64, 84, 84]               0
         MaxPool2d-4           [-1, 64, 42, 42]               0
            Conv2d-5           [-1, 64, 42, 42]          36,928
       BatchNorm2d-6           [-1, 64, 42, 42]             128
              ReLU-7           [-1, 64, 42, 42]               0
         MaxPool2d-8           [-1, 64, 21, 21]               0
            Conv2d-9           [-1, 64, 21, 21]          36,928
      BatchNorm2d-10           [-1, 64, 21, 21]             128
             ReLU-11           [-1, 64, 21, 21]               0
        MaxPool2d-12           [-1, 64, 10, 10]               0
           Conv2d-13           [-1, 64, 10, 10]          36,928
      BatchNorm2d-14           [-1, 64, 10, 10]             128
             ReLU-15           [-1, 64, 10, 10]               0
        MaxPool2d-16             [-1, 64, 5, 5]               0
           Linear-17                   [-1, 10]          16,010
================================================================
Total params: 129,098
Trainable params: 129,098
Non-trainable params: 0
----------------------------------------------------------------
Input size (MB): 0.08
Forward/backward pass size (MB): 14.85
Params size (MB): 0.49
Estimated Total Size (MB): 15.42
----------------------------------------------------------------

***************************************************************
resnet18   input = (3, 84, 84)
***************************************************************
----------------------------------------------------------------
        Layer (type)               Output Shape         Param #
================================================================
            Conv2d-1           [-1, 64, 84, 84]           1,728
       BatchNorm2d-2           [-1, 64, 84, 84]             128
              ReLU-3           [-1, 64, 84, 84]               0
            Conv2d-4           [-1, 64, 84, 84]          36,864
       BatchNorm2d-5           [-1, 64, 84, 84]             128
              ReLU-6           [-1, 64, 84, 84]               0
            Conv2d-7           [-1, 64, 84, 84]          36,864
       BatchNorm2d-8           [-1, 64, 84, 84]             128
              ReLU-9           [-1, 64, 84, 84]               0
       BasicBlock-10           [-1, 64, 84, 84]               0
           Conv2d-11           [-1, 64, 84, 84]          36,864
      BatchNorm2d-12           [-1, 64, 84, 84]             128
             ReLU-13           [-1, 64, 84, 84]               0
           Conv2d-14           [-1, 64, 84, 84]          36,864
      BatchNorm2d-15           [-1, 64, 84, 84]             128
             ReLU-16           [-1, 64, 84, 84]               0
       BasicBlock-17           [-1, 64, 84, 84]               0
           Conv2d-18          [-1, 128, 42, 42]          73,728
      BatchNorm2d-19          [-1, 128, 42, 42]             256
             ReLU-20          [-1, 128, 42, 42]               0
           Conv2d-21          [-1, 128, 42, 42]         147,456
      BatchNorm2d-22          [-1, 128, 42, 42]             256
           Conv2d-23          [-1, 128, 42, 42]           8,192
      BatchNorm2d-24          [-1, 128, 42, 42]             256
             ReLU-25          [-1, 128, 42, 42]               0
       BasicBlock-26          [-1, 128, 42, 42]               0
           Conv2d-27          [-1, 128, 42, 42]         147,456
      BatchNorm2d-28          [-1, 128, 42, 42]             256
             ReLU-29          [-1, 128, 42, 42]               0
           Conv2d-30          [-1, 128, 42, 42]         147,456
      BatchNorm2d-31          [-1, 128, 42, 42]             256
             ReLU-32          [-1, 128, 42, 42]               0
       BasicBlock-33          [-1, 128, 42, 42]               0
           Conv2d-34          [-1, 256, 21, 21]         294,912
      BatchNorm2d-35          [-1, 256, 21, 21]             512
             ReLU-36          [-1, 256, 21, 21]               0
           Conv2d-37          [-1, 256, 21, 21]         589,824
      BatchNorm2d-38          [-1, 256, 21, 21]             512
           Conv2d-39          [-1, 256, 21, 21]          32,768
      BatchNorm2d-40          [-1, 256, 21, 21]             512
             ReLU-41          [-1, 256, 21, 21]               0
       BasicBlock-42          [-1, 256, 21, 21]               0
           Conv2d-43          [-1, 256, 21, 21]         589,824
      BatchNorm2d-44          [-1, 256, 21, 21]             512
             ReLU-45          [-1, 256, 21, 21]               0
           Conv2d-46          [-1, 256, 21, 21]         589,824
      BatchNorm2d-47          [-1, 256, 21, 21]             512
             ReLU-48          [-1, 256, 21, 21]               0
       BasicBlock-49          [-1, 256, 21, 21]               0
           Conv2d-50          [-1, 512, 11, 11]       1,179,648
      BatchNorm2d-51          [-1, 512, 11, 11]           1,024
             ReLU-52          [-1, 512, 11, 11]               0
           Conv2d-53          [-1, 512, 11, 11]       2,359,296
      BatchNorm2d-54          [-1, 512, 11, 11]           1,024
           Conv2d-55          [-1, 512, 11, 11]         131,072
      BatchNorm2d-56          [-1, 512, 11, 11]           1,024
             ReLU-57          [-1, 512, 11, 11]               0
       BasicBlock-58          [-1, 512, 11, 11]               0
           Conv2d-59          [-1, 512, 11, 11]       2,359,296
      BatchNorm2d-60          [-1, 512, 11, 11]           1,024
             ReLU-61          [-1, 512, 11, 11]               0
           Conv2d-62          [-1, 512, 11, 11]       2,359,296
      BatchNorm2d-63          [-1, 512, 11, 11]           1,024
             ReLU-64          [-1, 512, 11, 11]               0
       BasicBlock-65          [-1, 512, 11, 11]               0
AdaptiveAvgPool2d-66            [-1, 512, 1, 1]               0
           Linear-67                 [-1, 1000]         513,000
================================================================
Total params: 11,681,832
Trainable params: 11,681,832
Non-trainable params: 0
----------------------------------------------------------------
Input size (MB): 0.08
Forward/backward pass size (MB): 107.49
Params size (MB): 44.56
Estimated Total Size (MB): 152.13
----------------------------------------------------------------

***************************************************************
resnet12  input = (3, 84, 84)
***************************************************************
----------------------------------------------------------------
        Layer (type)               Output Shape         Param #
================================================================
            Conv2d-1           [-1, 64, 84, 84]           1,728
       BatchNorm2d-2           [-1, 64, 84, 84]             128
         LeakyReLU-3           [-1, 64, 84, 84]               0
            Conv2d-4           [-1, 64, 84, 84]          36,864
       BatchNorm2d-5           [-1, 64, 84, 84]             128
         LeakyReLU-6           [-1, 64, 84, 84]               0
            Conv2d-7           [-1, 64, 84, 84]          36,864
       BatchNorm2d-8           [-1, 64, 84, 84]             128
            Conv2d-9           [-1, 64, 84, 84]             192
      BatchNorm2d-10           [-1, 64, 84, 84]             128
        LeakyReLU-11           [-1, 64, 84, 84]               0
        MaxPool2d-12           [-1, 64, 42, 42]               0
       BasicBlock-13           [-1, 64, 42, 42]               0
           Conv2d-14          [-1, 160, 42, 42]          92,160
      BatchNorm2d-15          [-1, 160, 42, 42]             320
        LeakyReLU-16          [-1, 160, 42, 42]               0
           Conv2d-17          [-1, 160, 42, 42]         230,400
      BatchNorm2d-18          [-1, 160, 42, 42]             320
        LeakyReLU-19          [-1, 160, 42, 42]               0
           Conv2d-20          [-1, 160, 42, 42]         230,400
      BatchNorm2d-21          [-1, 160, 42, 42]             320
           Conv2d-22          [-1, 160, 42, 42]          10,240
      BatchNorm2d-23          [-1, 160, 42, 42]             320
        LeakyReLU-24          [-1, 160, 42, 42]               0
        MaxPool2d-25          [-1, 160, 21, 21]               0
       BasicBlock-26          [-1, 160, 21, 21]               0
           Conv2d-27          [-1, 320, 21, 21]         460,800
      BatchNorm2d-28          [-1, 320, 21, 21]             640
        LeakyReLU-29          [-1, 320, 21, 21]               0
           Conv2d-30          [-1, 320, 21, 21]         921,600
      BatchNorm2d-31          [-1, 320, 21, 21]             640
        LeakyReLU-32          [-1, 320, 21, 21]               0
           Conv2d-33          [-1, 320, 21, 21]         921,600
      BatchNorm2d-34          [-1, 320, 21, 21]             640
           Conv2d-35          [-1, 320, 21, 21]          51,200
      BatchNorm2d-36          [-1, 320, 21, 21]             640
        LeakyReLU-37          [-1, 320, 21, 21]               0
        MaxPool2d-38          [-1, 320, 10, 10]               0
       BasicBlock-39          [-1, 320, 10, 10]               0
           Conv2d-40          [-1, 640, 10, 10]       1,843,200
      BatchNorm2d-41          [-1, 640, 10, 10]           1,280
        LeakyReLU-42          [-1, 640, 10, 10]               0
           Conv2d-43          [-1, 640, 10, 10]       3,686,400
      BatchNorm2d-44          [-1, 640, 10, 10]           1,280
        LeakyReLU-45          [-1, 640, 10, 10]               0
           Conv2d-46          [-1, 640, 10, 10]       3,686,400
      BatchNorm2d-47          [-1, 640, 10, 10]           1,280
           Conv2d-48          [-1, 640, 10, 10]         204,800
      BatchNorm2d-49          [-1, 640, 10, 10]           1,280
        LeakyReLU-50          [-1, 640, 10, 10]               0
        MaxPool2d-51            [-1, 640, 5, 5]               0
       BasicBlock-52            [-1, 640, 5, 5]               0
================================================================
Total params: 12,424,320
Trainable params: 12,424,320
Non-trainable params: 0
----------------------------------------------------------------
Input size (MB): 0.08
Forward/backward pass size (MB): 82.33
Params size (MB): 47.40
Estimated Total Size (MB): 129.81
----------------------------------------------------------------